…
               kernel_initializer=initializer_truncated_normal(stddev = 0.02),\n                         name = 'output')\nmodel = keras_model(inputs = inputs,outputs = outputs)\n\nThis is how the model architecture looks like after adding a dense layer and padding input sequences.\n\n\nModel\n__________________________________________________________________________________________\nLayer (type)                 Output Shape        Param #    Connected to                  \n==========================================================================================\nInput-Token (InputLayer)     (None, 50)          0                                        \n__________________________________________________________________________________________\nInput-Segment (InputLayer)   (None, 50)          0                                        \n__________________________________________________________________________________________\nEmbedding-Token (TokenEmbedd [(None, 50, 768), ( 23440896   Input-Token[0][0]             \n__________________________________________________________________________________________\nEmbedding-Segment (Embedding (None, 50, 768)     1536       Input-Segment[0][0]           \n__________________________________________________________________________________________\nEmbedding-Token-Segment (Add (None, 50, 768)     0          Embedding-Token[0][0]         \n                                                            Embedding-Segment[0][0]       \n__________________________________________________________________________________________\nEmbedding-Position (Position (None, 50, 768)     38400      Embedding-Token-Segment[0][0] \n__________________________________________________________________________________________\nEmbedding-Dropout (Dropout)  (None, 50, 768)     0          Embedding-Position[0][0]      \n__________________________________________________________________________________________\nEmbedding-Norm (LayerNormali (None, 50, 768)     1536       Embedding-Dropout[0][0]       \n__________________________________________________________________________________________\nEncoder-1-MultiHeadSelfAtten (None, 50, 768)     2362368    Embedding-Norm[0][0]          \n__________________________________________________________________________________________\nEncoder-1-MultiHeadSelfAtten (None, 50, 768)     0          Encoder-1-MultiHeadSelfAttenti\n__________________________________________________________________________________________\nEncoder-1-MultiHeadSelfAtten (None, 50, 768)     0          Embedding-Norm[0][0]          \n                                                            Encoder-1-MultiHeadSelfAttenti\n__________________________________________________________________________________________\nEncoder-1-MultiHeadSelfAtten (None, 50, 768)     1536       Encoder-1-MultiHeadSelfAttenti\n__________________________________________________________________________________________\nEncoder-1-FeedForward (FeedF (None, 50, 768)     4722432    Encoder-1-MultiHeadSelfAttenti\n__________________________________________________________________________________________\nEncoder-1-FeedForward-Dropou (None, 50, 768)     0          Encoder-1-FeedForward[0][0]   \n__________________________________________________________________________________________\nEncoder-1-FeedForward-Add (A (None, 50, 768)     0          Encoder-1-MultiHeadSelfAttenti\n                                                            Encoder-1-FeedForward-Dropout[\n__________________________________________________________________________________________\nEncoder-1-FeedForward-Norm ( (None, 50, 768)     1536       Encoder-1-FeedForward-Add[0][0\n__________________________________________________________________________________________\nEncoder-2-MultiHeadSelfAtten (None, 50, 768)     2362368    Encoder-1-FeedForward-Norm[0][\n__________________________________________________________________________________________\nEncoder-2-MultiHeadSelfAtten (None, 50, 768)     0          Encoder-2-MultiHeadSelfAttenti\n__________________________________________________________________________________________\nEncoder-2-MultiHeadSelfAtten (None, 50, 768)     0          Encoder-1-FeedForward-Norm[0][\n                                                            Encoder-2-MultiHeadSelfAttenti\n__________________________________________________________________________________________\nEncoder-2-MultiHeadSelfAtten (None, 50, 768)     1536       Encoder-2-MultiHeadSelfAttenti\n__________________________________________________________________________________________\nEncoder-2-FeedForward (FeedF (None, 50, 768)     4722432    Encoder-2-MultiHeadSelfAttenti\n__________________________________________________________________________________________\nEncoder-2-FeedForward-Dropou (None, 50, 768)     0          Encoder-2-FeedForward[0][0]   \n__________________________________________________________________________________________\nEncoder-2-FeedForward-Add (A (None, 50, 768)     0          Encoder-2-MultiHeadSelfAttenti\n                                                            Encoder-2-FeedForward-Dropout[\n__________________________________________________________________________________________\nEncoder-2-FeedForward-Norm ( (None, 50, 768)     1536       Encoder-2-FeedForward-Add[0][0\n__________________________________________________________________________________________\nEncoder-3-MultiHeadSelfAtten (None, 50, 768)     2362368    Encoder-2-FeedForward-Norm[0][\n__________________________________________________________________________________________\nEncoder-3-MultiHeadSelfAtten (None, 50, 768)     0          Encoder-3-MultiHeadSelfAttenti\n__________________________________________________________________________________________\nEncoder-3-MultiHeadSelfAtten (None, 50, 768)     0          Encoder-2-FeedForward-Norm[0][\n                                                            Encoder-3-MultiHeadSelfAttenti\n__________________________________________________________________________________________\nEncoder-3-MultiHeadSelfAtten (None, 50, 768)     1536       Encoder-3-MultiHeadSelfAttenti\n__________________________________________________________________________________________\nEncoder-3-FeedForward (FeedF (None, 50, 768)     4722432    Encoder-3-MultiHeadSelfAttenti\n__________________________________________________________________________________________\nEncoder-3-FeedForward-Dropou (None, 50, 768)     0          Encoder-3-FeedForward[0][0]   \n__________________________________________________________________________________________\nEncoder-3-FeedForward-Add (A (None, 50, 768)     0          Encoder-3-MultiHeadSelfAttenti\n                                                            Encoder-3-FeedForward-Dropout[\n__________________________________________________________________________________________\nEncoder-3-FeedForward-Norm ( (None, 50, 768)     1536       Encoder-3-FeedForward-Add[0][0\n__________________________________________________________________________________________\nEncoder-4-MultiHeadSelfAtten (None, 50, 768)     2362368    Encoder-3-FeedForward-Norm[0][\n__________________________________________________________________________________________\nEncoder-4-MultiHeadSelfAtten (None, 50, 768)     0          Encoder-4-MultiHeadSelfAttenti\n__________________________________________________________________________________________\nEncoder-4-MultiHeadSelfAtten (None, 50, 768)     0          Encoder-3-FeedForward-Norm[0][\n                                                            Encoder-4-MultiHeadSelfAttenti\n__________________________________________________________________________________________\nEncoder-4-MultiHeadSelfAtten (None, 50, 768)     1536       Encoder-4-MultiHeadSelfAttenti\n__________________________________________________________________________________________\nEncoder-4-FeedForward (FeedF (None, 50, 768)     4722432    Encoder-4-MultiHeadSelfAttenti\n__________________________________________________________________________________________\nEncoder-4-FeedForward-Dropou (None, 50, 768)     0          Encoder-4-FeedForward[0][0]   \n__________________________________________________________________________________________\nEncoder-4-FeedForward-Add (A (None, 50, 768)     0          Encoder-4-MultiHeadSelfAttenti\n                                                            Encoder-4-FeedForward-Dropout[\n__________________________________________________________________________________________\nEncoder-4-FeedForward-Norm ( (None, 50, 768)     1536       Encoder-4-FeedForward-Add[0][0\n__________________________________________________________________________________________\nEncoder-5-MultiHeadSelfAtten (None, 50, 768)     2362368    Encoder-4-FeedForward-Norm[0][\n__________________________________________________________________________________________\nEncoder-5-MultiHeadSelfAtten (None, 50, 768)     0          Encoder-5-MultiHeadSelfAttenti\n__________________________________________________________________________________________\nEncoder-5-MultiHeadSelfAtten (None, 50, 768)     0          Encoder-4-FeedForward-Norm[0][\n                                                            Encoder-5-MultiHeadSelfAttenti\n__________________________________________________________________________________________\nEncoder-5-MultiHeadSelfAtten (None, 50, 768)     1536       Encoder-5-MultiHeadSelfAttenti\n__________________________________________________________________________________________\nEncoder-5-FeedForward (FeedF (None, 50, 768)     4722432    Encoder-5-MultiHeadSelfAttenti\n__________________________________________________________________________________________\nEncoder-5-FeedForward-Dropou (None, 50, 768)     0          Encoder-5-FeedForward[0][0]   \n__________________________________________________________________________________________\nEncoder-5-FeedForward-Add (A (None, 50, 768)     0          Encoder-5-MultiHeadSelfAttenti\n                                                            Encoder-5-FeedForward-Dropout[\n__________________________________________________________________________________________\nEncoder-5-FeedForward-Norm ( (None, 50, 768)     1536       Encoder-5-FeedForward-Add[0][0\n__________________________________________________________________________________________\nEncoder-6-MultiHeadSelfAtten (None, 50, 768)     2362368    Encoder-5-FeedForward-Norm[0][\n__________________________________________________________________________________________\nEncoder-6-MultiHeadSelfAtten (None, 50, 768)     0          Encoder-6-MultiHeadSelfAttenti\n__________________________________________________________________________________________\nEncoder-6-MultiHeadSelfAtten (None, 50, 768)     0          Encoder-5-FeedForward-Norm[0][\n                                                            Encoder-6-MultiHeadSelfAttenti\n__________________________________________________________________________________________\nEncoder-6-MultiHeadSelfAtten (None, 50, 768)     1536       Encoder-6-MultiHeadSelfAttenti\n__________________________________________________________________________________________\nEncoder-6-FeedForward (FeedF (None, 50, 768)     4722432    Encoder-6-MultiHeadSelfAttenti\n__________________________________________________________________________________________\nEncoder-6-FeedForward-Dropou (None, 50, 768)     0          Encoder-6-FeedForward[0][0]   \n__________________________________________________________________________________________\nEncoder-6-FeedForward-Add (A (None, 50, 768)     0          Encoder-6-MultiHeadSelfAttenti\n                                                            Encoder-6-FeedForward-Dropout[\n__________________________________________________________________________________________\nEncoder-6-FeedForward-Norm ( (None, 50, 768)     1536       Encoder-6-FeedForward-Add[0][0\n__________________________________________________________________________________________\nEncoder-7-MultiHeadSelfAtten (None, 50, 768)     2362368    Encoder-6-FeedForward-Norm[0][\n__________________________________________________________________________________________\nEncoder-7-MultiHeadSelfAtten (None, 50, 768)     0          Encoder-7-MultiHeadSelfAttenti\n__________________________________________________________________________________________\nEncoder-7-MultiHeadSelfAtten (None, 50, 768)     0          Encoder-6-FeedForward-Norm[0][\n                                                            Encoder-7-MultiHeadSelfAttenti\n__________________________________________________________________________________________\nEncoder-7-MultiHeadSelfAtten (None, 50, 768)     1536       Encoder-7-MultiHeadSelfAttenti\n__________________________________________________________________________________________\nEncoder-7-FeedForward (FeedF (None, 50, 768)     4722432    Encoder-7-MultiHeadSelfAttenti\n__________________________________________________________________________________________\nEncoder-7-FeedForward-Dropou (None, 50, 768)     0          Encoder-7-FeedForward[0][0]   \n__________________________________________________________________________________________\nEncoder-7-FeedForward-Add (A (None, 50, 768)     0          Encoder-7-MultiHeadSelfAttenti\n                                                            Encoder-7-FeedForward-Dropout[\n__________________________________________________________________________________________\nEncoder-7-FeedForward-Norm ( (None, 50, 768)     1536       Encoder-7-FeedForward-Add[0][0\n__________________________________________________________________________________________\nEncoder-8-MultiHeadSelfAtten (None, 50, 768)     2362368    Encoder-7-FeedForward-Norm[0][\n__________________________________________________________________________________________\nEncoder-8-MultiHeadSelfAtten (None, 50, 768)     0          Encoder-8-MultiHeadSelfAttenti\n__________________________________________________________________________________________\nEncoder-8-MultiHeadSelfAtten (None, 50, 768)     0          Encoder-7-FeedForward-Norm[0][\n                                                            Encoder-8-MultiHeadSelfAttenti\n__________________________________________________________________________________________\nEncoder-8-MultiHeadSelfAtten (None, 50, 768)     1536       Encoder-8-MultiHeadSelfAttenti\n__________________________________________________________________________________________\nEncoder-8-FeedForward (FeedF (None, 50, 768)     4722432    Encoder-8-MultiHeadSelfAttenti\n__________________________________________________________________________________________\nEncoder-8-FeedForward-Dropou (None, 50, 768)     0          Encoder-8-FeedForward[0][0]   \n__________________________________________________________________________________________\nEncoder-8-FeedForward-Add (A (None, 50, 768)     0          Encoder-8-MultiHeadSelfAttenti\n                                                            Encoder-8-FeedForward-Dropout[\n__________________________________________________________________________________________\nEncoder-8-FeedForward-Norm ( (None, 50, 768)     1536       Encoder-8-FeedForward-Add[0][0\n__________________________________________________________________________________________\nEncoder-9-MultiHeadSelfAtten (None, 50, 768)     2362368    Encoder-8-FeedForward-Norm[0][\n__________________________________________________________________________________________\nEncoder-9-MultiHeadSelfAtten (None, 50, 768)     0          Encoder-9-MultiHeadSelfAttenti\n__________________________________________________________________________________________\nEncoder-9-MultiHeadSelfAtten (None, 50, 768)     0          Encoder-8-FeedForward-Norm[0][\n                                                            Encoder-9-MultiHeadSelfAttenti\n__________________________________________________________________________________________\nEncoder-9-MultiHeadSelfAtten (None, 50, 768)     1536       Encoder-9-MultiHeadSelfAttenti\n__________________________________________________________________________________________\nEncoder-9-FeedForward (FeedF (None, 50, 768)     4722432    Encoder-9-MultiHeadSelfAttenti\n__________________________________________________________________________________________\nEncoder-9-FeedForward-Dropou (None, 50, 768)     0          Encoder-9-FeedForward[0][0]   \n__________________________________________________________________________________________\nEncoder-9-FeedForward-Add (A (None, 50, 768)     0          Encoder-9-MultiHeadSelfAttenti\n                                                            Encoder-9-FeedForward-Dropout[\n__________________________________________________________________________________________\nEncoder-9-FeedForward-Norm ( (None, 50, 768)     1536       Encoder-9-FeedForward-Add[0][0\n__________________________________________________________________________________________\nEncoder-10-MultiHeadSelfAtte (None, 50, 768)     2362368    Encoder-9-FeedForward-Norm[0][\n__________________________________________________________________________________________\nEncoder-10-MultiHeadSelfAtte (None, 50, 768)     0          Encoder-10-MultiHeadSelfAttent\n__________________________________________________________________________________________\nEncoder-10-MultiHeadSelfAtte (None, 50, 768)     0          Encoder-9-FeedForward-Norm[0][\n                                                            Encoder-10-MultiHeadSelfAttent\n__________________________________________________________________________________________\nEncoder-10-MultiHeadSelfAtte (None, 50, 768)     1536       Encoder-10-MultiHeadSelfAttent\n__________________________________________________________________________________________\nEncoder-10-FeedForward (Feed (None, 50, 768)     4722432    Encoder-10-MultiHeadSelfAttent\n__________________________________________________________________________________________\nEncoder-10-FeedForward-Dropo (None, 50, 768)     0          Encoder-10-FeedForward[0][0]  \n__________________________________________________________________________________________\nEncoder-10-FeedForward-Add ( (None, 50, 768)     0          Encoder-10-MultiHeadSelfAttent\n                                                            Encoder-10-FeedForward-Dropout\n__________________________________________________________________________________________\nEncoder-10-FeedForward-Norm  (None, 50, 768)     1536       Encoder-10-FeedForward-Add[0][\n__________________________________________________________________________________________\nEncoder-11-MultiHeadSelfAtte (None, 50, 768)     2362368    Encoder-10-FeedForward-Norm[0]\n__________________________________________________________________________________________\nEncoder-11-MultiHeadSelfAtte (None, 50, 768)     0          Encoder-11-MultiHeadSelfAttent\n__________________________________________________________________________________________\nEncoder-11-MultiHeadSelfAtte (None, 50, 768)     0          Encoder-10-FeedForward-Norm[0]\n                                                            Encoder-11-MultiHeadSelfAttent\n__________________________________________________________________________________________\nEncoder-11-MultiHeadSelfAtte (None, 50, 768)     1536       Encoder-11-MultiHeadSelfAttent\n__________________________________________________________________________________________\nEncoder-11-FeedForward (Feed (None, 50, 768)     4722432    Encoder-11-MultiHeadSelfAttent\n__________________________________________________________________________________________\nEncoder-11-FeedForward-Dropo (None, 50, 768)     0          Encoder-11-FeedForward[0][0]  \n__________________________________________________________________________________________\nEncoder-11-FeedForward-Add ( (None, 50, 768)     0          Encoder-11-MultiHeadSelfAttent\n                                                            Encoder-11-FeedForward-Dropout\n__________________________________________________________________________________________\nEncoder-11-FeedForward-Norm  (None, 50, 768)     1536       Encoder-11-FeedForward-Add[0][\n__________________________________________________________________________________________\nEncoder-12-MultiHeadSelfAtte (None, 50, 768)     2362368    Encoder-11-FeedForward-Norm[0]\n__________________________________________________________________________________________\nEncoder-12-MultiHeadSelfAtte (None, 50, 768)     0          Encoder-12-MultiHeadSelfAttent\n__________________________________________________________________________________________\nEncoder-12-MultiHeadSelfAtte (None, 50, 768)     0          Encoder-11-FeedForward-Norm[0]\n                                                            Encoder-12-MultiHeadSelfAttent\n__________________________________________________________________________________________\nEncoder-12-MultiHeadSelfAtte (None, 50, 768)     1536       Encoder-12-MultiHeadSelfAttent\n__________________________________________________________________________________________\nEncoder-12-FeedForward (Feed (None, 50, 768)     4722432    Encoder-12-MultiHeadSelfAttent\n__________________________________________________________________________________________\nEncoder-12-FeedForward-Dropo (None, 50, 768)     0          Encoder-12-FeedForward[0][0]  \n__________________________________________________________________________________________\nEncoder-12-FeedForward-Add ( (None, 50, 768)     0          Encoder-12-MultiHeadSelfAttent\n                                                            Encoder-12-FeedForward-Dropout\n__________________________________________________________________________________________\nEncoder-12-FeedForward-Norm  (None, 50, 768)     1536       Encoder-12-FeedForward-Add[0][\n__________________________________________________________________________________________\nExtract (Extract)            (None, 768)         0          Encoder-12-FeedForward-Norm[0]\n__________________________________________________________________________________________\nNSP-Dense (Dense)            (None, 768)         590592     Extract[0][0]                 \n__________________________________________________________________________________________\noutput (Dense)               (None, 1)           769        NSP-Dense[0][0]               \n==========================================================================================\nTotal params: 109,128,193\nTrainable params: 109,128,193\nNon-trainable params: 0\n__________________________________________________________________________________________\n\nCompile model and begin training\nAus usual with Keras, before training a model, we need to
…
